…
        [1., 0., 0., 0.],
        [1., 0., 0., 0.],
        [1., 0., 0., 0.],
        [1., 0., 0., 0.],
        [1., 0., 0., 0.],
        [1., 0., 0., 0.],
        [1., 0., 0., 0.],
        [1., 0., 0., 0.],
        [1., 0., 0., 0.],
        [1., 0., 0., 0.],
        [1., 0., 0., 0.],
        [1., 0., 0., 0.],
        [1., 0., 0., 0.],
        [1., 0., 0., 0.]], device='cuda:0')
I am not in singular skill
Skill log prob here look like tensor([[… device='cuda:0')
I AM INSIDE: UPDATE CRITIC
I AM INSIDE: ACTOR AND ALPHA
I AM INSIDE: DISCRIMINATOR
I AM INSIDE SNAPSHOT
Params are : {'trainer/policy': Sequential(
  (0): Linear(in_features=117, out_features=1024, bias=True)
  (1): ReLU(inplace=True)
  (2): Linear(in_features=1024, out_features=1024, bias=True)
  (3): ReLU(inplace=True)
  (4): Linear(in_features=1024, out_features=16, bias=True)
), 'trainer/qf1': Sequential(
  (0): Linear(in_features=125, out_features=1024, bias=True)
  (1): ReLU(inplace=True)
  (2): Linear(in_features=1024, out_features=1024, bias=True)
  (3): ReLU(inplace=True)
  (4): Linear(in_features=1024, out_features=1, bias=True)
), 'trainer/qf2': Sequential(
  (0): Linear(in_features=125, out_features=1024, bias=True)
  (1): ReLU(inplace=True)
  (2): Linear(in_features=1024, out_features=1024, bias=True)
  (3): ReLU(inplace=True)
  (4): Linear(in_features=1024, out_features=1, bias=True)
), 'trainer/target_qf1': Sequential(
  (0): Linear(in_features=125, out_features=1024, bias=True)
  (1): ReLU(inplace=True)
  (2): Linear(in_features=1024, out_features=1024, bias=True)
  (3): ReLU(inplace=True)
  (4): Linear(in_features=1024, out_features=1, bias=True)
), 'trainer/target_qf2': Sequential(
  (0): Linear(in_features=125, out_features=1024, bias=True)
  (1): ReLU(inplace=True)
  (2): Linear(in_features=1024, out_features=1024, bias=True)
  (3): ReLU(inplace=True)
  (4): Linear(in_features=1024, out_features=1, bias=True)
), 'trainer/discriminator': Discriminator(
  (model): Sequential(
    (0): Linear(in_features=2, out_features=1024, bias=True)
    (1): ReLU(inplace=True)
    (2): Linear(in_features=1024, out_features=1024, bias=True)
    (3): ReLU(inplace=True)
    (4): Linear(in_features=1024, out_features=4, bias=True)
  )
  (criterion): CrossEntropyLoss()
), 'exploration/env': <rlkit.envs.wrappers.NormalizedBoxEnv object at 0x150321d99f28>, 'exploration/policy': Sequential(
  (0): Linear(in_features=117, out_features=1024, bias=True)
  (1): ReLU(inplace=True)
  (2): Linear(in_features=1024, out_features=1024, bias=True)
  (3): ReLU(inplace=True)
  (4): Linear(in_features=1024, out_features=16, bias=True)
), 'evaluation/env': <rlkit.envs.wrappers.NormalizedBoxEnv object at 0x1502a8713d68>, 'evaluation/policy': <rlkit.torch.sac.policies.MakeDeterministicLatentPolicy object at 0x1502a8298cc0>}
SAVE FILE IN: /home/yb1025/Research/GRAIL/HUSK/accelerate-skillDiscovery/generalized-hindsight/rlkit/../data/DIAYN-GHER-ANTENV-SEED1-SEED-1/DIAYN-GHER-ANTENV-SEED1-SEED_1_2022_06_05_21_48_14_0000--s-1/itr_0.pkl
…
